…
1, patience=10, num_workers=4, seed=42, weight_decay=0.0, adam_beta1=0.9, adam_beta2=0.999, gpu_id='0', variance=5, model_type='lowarec', max_seq_length=50, hidden_size=64, num_hidden_layers=2, hidden_act='gelu', num_attention_heads=4, attention_probs_dropout_prob=0.5, hidden_dropout_prob=0.5, initializer_range=0.02, proj_n_heads=4, proj_dropout=0.5, c=3, alpha=0.7, dim_proj=8, cuda_condition=True, data_file='./data/LastFM.txt', item_size=3647, checkpoint_path='output/lowarec_LastFM_res.pt', same_target_path='./data/LastFM_same_target.npy')
2025-10-21 15:24:09,985 - LoWARec(
  (item_embeddings): Embedding(3647, 64, padding_idx=0)
  (position_embeddings): Embedding(50, 64)
  (LayerNorm): LayerNorm((64,), eps=1e-12, elementwise_affine=True)
  (dropout): Dropout(p=0.5, inplace=False)
  (item_encoder): LoWARecEncoder(
    (blocks): ModuleList(
      (0-1): 2 x LoWARecBlock(
        (layer): LoWARecLayer(
          (filter_layer): FourierWaveletFusionLayer(
            (out_dropout): Dropout(p=0.5, inplace=False)
            (LayerNorm): LayerNorm((64,), eps=1e-12, elementwise_affine=True)
            (alpha_act): Sigmoid()
            (wavelet_conv): Conv1d(64, 64, kernel_size=(3,), stride=(1,), padding=(1,), groups=64, bias=False)
          )
          (projected_layer): DualStageAttention(
            (out_attn): AttentionLayer(
              (FC_Q): Linear(in_features=64, out_features=64, bias=True)
              (FC_K): Linear(in_features=64, out_features=64, bias=True)
              (FC_V): Linear(in_features=64, out_features=64, bias=True)
              (out_proj): Linear(in_features=64, out_features=64, bias=True)
            )
            (in_attn): AttentionLayer(
              (FC_Q): Linear(in_features=64, out_features=64, bias=True)
              (FC_K): Linear(in_features=64, out_features=64, bias=True)
              (FC_V): Linear(in_features=64, out_features=64, bias=True)
              (out_proj): Linear(in_features=64, out_features=64, bias=True)
            )
            (dropout): Dropout(p=0.5, inplace=False)
            (norm1): LayerNorm((64,), eps=1e-05, elementwise_affine=True)
            (norm2): LayerNorm((64,), eps=1e-05, elementwise_affine=True)
            (MLP): Sequential(
              (0): Linear(in_features=64, out_features=256, bias=True)
              (1): GELU(approximate='none')
              (2): Linear(in_features=256, out_features=64, bias=True)
            )
          )
        )
        (feed_forward): FeedForward(
          (dense_1): Linear(in_features=64, out_features=256, bias=True)
          (dense_2): Linear(in_features=256, out_features=64, bias=True)
          (LayerNorm): LayerNorm()
          (dropout): Dropout(p=0.5, inplace=False)
        )
      )
    )
  )
)
2025-10-21 15:24:10,729 - Total Parameters: 438082
2025-10-21 15:24:17,233 - {'epoch': 0, 'rec_loss': '7.9373'}
2025-10-21 15:24:17,684 - {'Epoch': 0, 'HR@5': '0.0211', 'NDCG@5': '0.0143', 'HR@10': '0.0394', 'NDCG@10': '0.0201', 'HR@20': '0.0578', 'NDCG@20': '0.0247'}
2025-10-21 15:24:17,685 - Validation score increased.  Saving model ...
…
